…
2018-11-09 14:57:57,869 INFO Saving job outputs to /global/cscratch1/sd/sfarrell/sc18-dl-tutorial/cifar-cnn-N1-16277619
2018-11-09 14:57:57.874844: I tensorflow/core/platform/cpu_feature_guard.cc:141] Your CPU supports instructions that this TensorFlow binary was not compiled to use: SSE4.1 SSE4.2 AVX AVX2 AVX512F FMA
OMP: Warning #181: OMP_PROC_BIND: ignored because KMP_AFFINITY has been defined
_________________________________________________________________
Layer (type)                 Output Shape              Param #   
=================================================================
conv2d_1 (Conv2D)            (None, 32, 32, 16)        448       
_________________________________________________________________
max_pooling2d_1 (MaxPooling2 (None, 16, 16, 16)        0         
_________________________________________________________________
dropout_1 (Dropout)          (None, 16, 16, 16)        0         
_________________________________________________________________
conv2d_2 (Conv2D)            (None, 16, 16, 32)        4640      
_________________________________________________________________
max_pooling2d_2 (MaxPooling2 (None, 8, 8, 32)          0         
_________________________________________________________________
dropout_2 (Dropout)          (None, 8, 8, 32)          0         
_________________________________________________________________
conv2d_3 (Conv2D)            (None, 8, 8, 64)          18496     
_________________________________________________________________
max_pooling2d_3 (MaxPooling2 (None, 4, 4, 64)          0         
_________________________________________________________________
dropout_3 (Dropout)          (None, 4, 4, 64)          0         
_________________________________________________________________
flatten_1 (Flatten)          (None, 1024)              0         
_________________________________________________________________
dense_1 (Dense)              (None, 128)               131200    
_________________________________________________________________
dropout_4 (Dropout)          (None, 128)               0         
_________________________________________________________________
dense_2 (Dense)              (None, 10)                1290      
=================================================================
Total params: 156,074
Trainable params: 156,074
Non-trainable params: 0
_________________________________________________________________
Epoch 1/16
 - 87s - loss: 1.7761 - acc: 0.3480 - val_loss: 1.4954 - val_acc: 0.4629
Epoch 2/16
 - 77s - loss: 1.4617 - acc: 0.4743 - val_loss: 1.3636 - val_acc: 0.5093
Epoch 3/16
 - 76s - loss: 1.3412 - acc: 0.5182 - val_loss: 1.1727 - val_acc: 0.5795
…
